NeuralNets/Tamil/classifier_embedding_weights.npy (npy, 24704 bytes, 1 tensors)

array f4 [48, 128]
3.0804093 1.8136005 0.42350656 -0.7745746 -1.811505 -2.0393658 -0.28351793 -0.61728436
-1.6206806 -0.66693884 0.29165387 0.25370133 0.3850973 -0.634811 0.5283067 0.7652884
2.2390473 0.19194679 -0.47980976 -1.3731228 0.114503734 0.24324784 0.8015171 0.18935744
-0.5111657 1.3025503 -0.57274663 0.016949654 0.940551 -0.07539111 -1.2095007 -0.70169336
0.10826347 0.34744874 -1.4570756 0.022114156 -0.6722576 1.7803339 -0.5945521 -1.1594135
0.42459226 -1.2051497 -0.2991944 -1.8774308 -0.9587634 1.0193144 -1.8077826 0.65656614
1.1327348 -3.2660186 0.28263983 -0.7154866 1.3385615 0.3576423 0.77352816 -1.8497633
-1.6433957 0.73114705 1.1799979 1.4079388 -0.42280623 -0.031683993 0.61395544 -0.56458217
0.8778643 0.91376644 0.5586223 -0.047479607 0.35424325 1.1992357 -0.027193144 1.2099518
-1.5388457 1.6612833 1.0909775 0.018779557 0.10019192 -0.8806342 -0.665816 -1.0762537
0.17669001 1.6629618 -1.4089763 0.34569505 -0.871112 -0.59010273 1.3519852 -0.8409075
0.118896745 -2.1310096 0.57681644 0.27292627 -0.5491067 -1.1035893 0.8138929 -0.8125668
-0.8919513 0.34076422 1.5350212 0.30547056 0.9508921 0.32320234 0.17742454 -0.11906597
-0.86121494 -0.7315235 0.21870974 -1.7996104 0.3401693 -0.25492585 1.1310623 -0.16082175
1.306361 -1.4149513 -1.3201631 -0.37988305 0.21703373 -0.96776897 -0.23801424 -1.9015191
0.8196335 -0.9997333 0.091712676 0.3077787 1.256693 -0.50196904 0.8008529 -0.9541472
1.1753397 0.66025704 0.008132079 -0.7992592 0.04848788 -0.08134488 -0.32387546 -0.5592674
-0.99114513 -2.0174232 -0.48145586 -0.97943664 0.09256997 -0.5924481 0.48440596 0.10084601
0.54602027 0.38003305 0.5667994 0.20997737 -0.02735861 -0.2425698 -1.2650353 -1.1250367
-0.33804563 0.56765425 0.5865172 -1.4001629 -0.7145468 -0.6167555 -0.6425267 -0.95658326
-1.1353121 -1.6010923 0.58918655 -0.5706102 2.563379 0.6504088 -0.87653273 -1.7639459
2.729433 -0.021299193 -0.90059245 -0.6170577 -0.5276985 0.66979545 0.7477293 -0.50547373
0.06621241 -0.20844792 1.0283316 0.56632674 -0.4393573 1.6812667 1.3746228 0.6617785
2.249677 -1.3789163 -1.1015161 -0.80521715 -1.6865402 0.9506466 -1.3142155 0.07597902
-2.0961883 0.15816236 -0.2295025 -2.112662 -1.0005761 1.2351718 0.76881874 1.6522497
0.1638917 -0.7374541 0.58260036 -1.1705397 0.66970783 -1.1828015 -0.6008081 -0.0014361404
-0.25070563 -0.6042748 0.704998 -1.0190947 -0.7456667 2.466006 0.0076284143 -0.77283245
0.58138794 -1.0132985 -0.41287783 -0.31658268 -2.0202212 -0.8558781 -0.2075705 -1.0017165
-0.50011736 0.1458893 -1.581381 -0.86447227 -1.3118466 -0.41332135 -0.72508097 1.3377243
0.3822277 0.6527832 -0.28844118 -0.74278635 -0.6899379 0.3110866 2.5033932 1.6651809
0.74452555 -1.0393556 -1.0904684 -0.10025685 -0.51484835 -0.6049447 -0.09603669 -1.3166287
-0.37315246 1.9503598 1.1211803 -0.3024327 -1.3753675 0.5193273 -0.23906092 -0.8031604
00000000: 6d25 4540 1024 e83f dad5 d83e 854a 46bf
00000010: 65df e7bf f884 02c0 4329 91be 5906 1ebf
00000020: 7672 cfbf 81bc 2abf a853 953e 24e5 813e
00000030: 792b c53e f982 22bf 1c3f 073f f1e9 433f
00000040: 8d4c 0f40 b38d 443e a0a9 f5be 7dc2 afbf
00000050: ef80 ea3d f615 793e 3a30 4d3f ebe6 413e
00000060: c1db 02bf f8b9 a63f 869f 12bf 00da 8a3c
00000070: f3c7 703f a766 9abd ebd0 9abf 2da2 33bf
00000080: 3db9 dd3d cde4 b13e 7481 babf bf28 b53c
00000090: 1319 2cbf fbe1 e33f 9134 18bf a967 94bf
000000a0: 2864 d93e 5842 9abf 0230 99be a74f f0bf
000000b0: 8571 75bf e578 823f 6c65 e7bf b814 283f
000000c0: 74fd 903f 7306 51c0 2bb6 903e 212a 37bf
000000d0: fc55 ab3f e41c b73e f105 463f 0bc5 ecbf
000000e0: ca5a d2bf 742c 3b3f 2c0a 973f 5737 b43f
000000f0: 0f7a d8be 13c7 01bd 2f2c 1d3f 7588 10bf
00000100: b7bb 603f 99ec 693f df01 0f3f fa79 42bd
00000110: 5f5f b53e 8e80 993f 28c4 debc b3df 9a3f
00000120: e5f8 c4bf eea4 d43f 27a5 8b3f 96d7 993c
00000130: 6c31 cd3d 3e71 61bf eb72 2abf aec2 89bf
00000140: 3aee 343e efdb d43f 5659 b4bf f1fe b03e
00000150: 3201 5fbf f910 17bf da0d ad3f b745 57bf
00000160: 2380 f33d 7662 08c0 3eaa 133f febc 8b3e
00000170: 4292 0cbf 6a42 8dbf 495b 503f 6104 50bf
00000180: ec56 64bf a678 ae3e 937b c43f a366 9c3e
00000190: aa6d 733f c77a a53e c7ae 353e dcd8 f3bd
000001a0: 9578 5cbf 2045 3bbf 72f5 5f3e a259 e6bf
000001b0: ac2a ae3e a485 82be a6c6 903f 75ae 24be
000001c0: d636 a73f 201d b5bf 1bfb a8bf 0880 c2be
000001d0: 173e 5e3e b5bf 77bf 01ba 73be fa64 f3bf
000001e0: 80d3 513f 86ee 7fbf dbd3 bb3d 2b95 9d3e
000001f0: 51db a03f 0b81 00bf b204 4d3f fe42 74bf
00000200: 8871 963f 9b06 293f 693c 053c 409c 4cbf
00000210: 3a9b 463d 2598 a6bd 01d3 a5be 262c 0fbf
00000220: b0bb 7dbf 761d 01c0 6281 f6be 5cbc 7abf
00000230: 5395 bd3d aeaa 17bf 0f04 f83e 5a88 ce3d
00000240: fcc7 0b3f b193 c23e c419 113f 4f04 573e
00000250: 2a1f e0bc 3864 78be adec a1bf 3401 90bf
00000260: 5114 adbe ca51 113f fe25 163f 8a38 b3bf
00000270: 8aec 36bf b0e3 1dbf a17c 24bf a4e2 74bf
00000280: e851 91bf 98f0 ccbf eed4 163f 8313 12bf
00000290: 670e 2440 3181 263f 7364 60bf fbc8 e1bf
000002a0: 08af 2e40 a57b aebc 3a8d 66bf 7ef7 1dbf
000002b0: 4017 07bf b777 2b3f 306b 3f3f ba66 01bf
000002c0: 5f9a 873d 5f73 55be 5fa0 833f cafa 103f
000002d0: 71f3 e0be bf33 d73f a4f3 af3f 516a 293f
000002e0: b5fa 0f40 5480 b0bf 7bfe 8cbf b622 4ebf
000002f0: 8de0 d7bf 935d 733f 3738 a8bf e39a 9b3d
00000300: f327 06c0 50f5 213e b402 6bbe db35 07c0
00000310: e112 80bf 1c1a 9e3f 4ed1 443f eb7c d33f
00000320: 3ad3 273e cbc9 3cbf 4c25 153f 3fd4 95bf
00000330: f971 2b3f 0a66 97bf 8fce 19bf e03c bcba
00000340: 7d5c 80be c1b1 1abf c07a 343f b271 82bf
00000350: 03e4 3ebf 0bd3 1d40 c7f7 f93b 59d8 45bf
00000360: d7d5 143f c4b3 81bf b964 d3be 2017 a2be
00000370: 4e4b 01c0 d41a 5bbf 5c8d 54be 3f38 80bf
00000380: b107 00bf 0164 153e b16a cabf 0e4e 5dbf
00000390: 97ea a7bf db9e d3be e89e 39bf 8d3a ab3f
000003a0: 59b3 c33e cd1c 273f 90ae 93be 3f27 3ebf
000003b0: c59f 30bf be46 9f3e 9837 2040 a624 d53f
000003c0: 3a99 3e3f 9b09 85bf 7894 8bbf 7753 cdbd
000003d0: 1acd 03bf a8dd 1abf e2ae c4bd 4a87 a8bf
000003e0: d70d bfbe 64a5 f93f d682 8f3f 75d8 9abe
000003f0: 0b0c b0bf a2f2 043f 63cc 74be ec9b 4dbf
